src/dfCombustionModels/FGM/DeePFGM/FGMinference/networks-2D/model_gpu_all.pth (torch, 253499 bytes, 16 tensors)

input_layer.weight f4 [100, 2]
-1.1922808e-37 -1.3522836e-10 -0.0050862585 0.010168922 0.6302715 0.25729552 0.4651912 0.12342595
0.0021002293 -0.00011394946 -0.14544336 0.51522267 -0.7214904 -0.042862065 -0.00024379819 -0.00024690005
7.17207e-40 -1.773438e-39 -0.80549085 0.12419258 -0.0002542534 -0.00029704595 0.6330231 0.015395625
0.0456039 0.7035493 0.56041205 -0.4191526 0.42337707 -0.61055416 -0.55740625 0.6722028
-4.095659e-39 -2.217022e-39 0.37090144 0.098351106 -5.826308e-39 -3.641773e-39 -0.5390941 -0.23785932
-2.85181e-40 -2.820261e-29 0.22260575 0.10445496 -6.891861e-09 -2.507236e-06 0.5583991 -0.5225121
-0.5400034 0.70160973 -0.66955703 -0.18610902 -3.7189216e-10 -3.922275e-37 -8.940315e-18 -2.2540982e-13
-0.21340823 -0.46639895 0.10833664 0.5135228 -4.689339e-39 2.4701e-40 0.032900248 0.6067111
0.6276062 0.64421856 -0.5855576 0.6536838 -1.1156342e-33 -4.908297e-33 -3.656689e-27 -8.77986e-40
6.230991e-39 -5.689933e-39 0.037487034 -0.11276147 -0.3382866 0.25475875 -0.62093586 0.36584514
0.4528111 -0.38567567 -0.15579928 -0.6124331 -0.45715573 0.077361286 0.33240488 0.7136516
-6.0321294e-05 -0.00024597766 0.009690798 0.000124825 -0.5600853 0.37405732 0.14027546 0.254608
-0.51344055 -0.12792158 0.062083304 -0.4064055 0.67836076 0.24225946 0.7191802 0.2165393
-0.00238761 0.0031342916 0.31280172 0.13841587 -5.285669e-18 -7.5460565e-19 0.47562167 -0.011146087
-0.049887314 0.3141235 -0.5111793 -0.6032386 0.46007785 0.0062929685 -1.2580166e-06 -1.5881841e-06
-0.52346945 0.6428119 -2.442943e-19 -4.741064e-39 -2.03343e-39 -2.6801183e-09 0.6002053 0.5486933
-0.0010124622 -4.0273253e-06 -0.47627616 0.7044549 -0.35548526 0.61825275 -3.9130544e-18 -6.561122e-20
-0.71437424 0.08976023 -0.05109262 -0.5765882 0.52580774 -0.24210694 0.02015915 0.22780597
0.07353653 0.22963463 -0.0030573413 -0.0010530098 0.5462064 0.519873 -2.066758e-39 -1.432228e-39
-0.11164567 -0.22892354 0.44037297 0.4059551 -0.16382618 0.054504775 0.12899484 0.0151252085
0.4760071 -0.5258513 -0.49881968 -0.43046424 -0.12228865 -0.4991032 0.68496114 -0.01074389
0.49251753 0.18630996 -6.5585315e-05 -4.5710487e-05 0.40748125 0.5712061 0.17994013 -0.0856174
-0.42022932 -0.04049726 0.59236306 0.09720573 -0.18547767 0.49207345 0.56319785 0.21463655
0.6631896 0.0872315 -0.46717772 -0.36785856 0.53970945 -0.25533542 -0.4230178 0.4205177
-0.68560857 0.01051065 0.49704796 0.21116665 -3.514826e-39 -4.522293e-08 0.4010927 0.1370095
00000000: ec48 2282 66af 14af a1aa a6bb 8d9b 263c
00000010: 7959 213f 3dbc 833e 8a2d ee3e bfc6 fc3d
00000020: 00a4 093b 27f8 eeb8 1bef 14be a2e5 033f
00000030: 98b3 38bf 2290 2fbd 14a4 7fb9 5d72 81b9
00000040: 48cf 0700 a04f 1380 a634 4ebf ae58 fe3d
00000050: 504d 85b9 d5bc 9bb9 cd0d 223f ee3d 7c3c
00000060: 28cb 3a3d cf1b 343f 2a77 0f3f 2b9b d6be
00000070: e1c4 d83e 474d 1cbf 2db2 0ebf 7c15 2c3f
00000080: 0899 2c80 2824 1880 cbe6 bd3e 4e6c c93d
00000090: 6071 3f80 c8a7 2780 1202 0abf 6591 73be
000000a0: f81a 0380 1501 0f90 c3f2 633e 7bec d53d
000000b0: 73cd ecb1 fd41 28b6 3ef3 0e3f 5ac3 05bf
000000c0: aa3d 0abf b29c 333f 1768 2bbf 5d93 3ebe
000000d0: 2b73 ccaf d677 0583 72eb 24a3 f5c9 7daa
000000e0: b087 5abe d8cb eebe 9adf dd3d 3b76 033f
000000f0: f80f 3380 90b0 0200 69c2 063d 6b51 1b3f
00000100: cdaa 203f 82eb 243f 1ae7 15bf d257 273f
00000110: d55d b988 f7e1 cb89 3bdb 9093 788f 0980
00000120: 78d9 4300 38f5 3d80 018c 193d 7cef e6bd
00000130: e733 adbe bd6f 823e a7f5 1ebf 0e50 bb3e
00000140: dbd6 e73e 4877 c5be d989 1fbe 6ac8 1cbf
00000150: 5110 eabe 986f 9e3d f930 aa3e dfb1 363f
00000160: 7f01 7db8 90f6 80b9 27c6 1e3c 75e3 0239
00000170: c061 0fbf 7184 bf3e 5fa4 0f3e fb5b 823e
00000180: d770 03bf e0fd 02be 104b 7e3d 6214 d0be
00000190: 0da9 2d3f dd12 783e 321c 383f 7abc 5d3e
000001a0: 7379 1cbb b068 4d3b 8c27 a03e e4bc 0d3e
000001b0: bb01 c3a2 64b8 5ea1 af84 f33e 149e 36bc
000001c0: a456 4cbd ccd4 a03e a6dc 02bf d86d 1abf
000001d0: 538f eb3e 3f35 ce3b 1fd9 a8b5 9729 d5b5
000001e0: 1802 06bf 528f 243f b634 90a0 28a0 3380
000001f0: 6024 1680 242d 38b1 0ea7 193f 2a77 0c3f
00000200: 98b4 84ba 7622 87b6 78da f3be 2857 343f
00000210: 2a02 b6be d045 1e3f c15d 90a2 8deb 9a9f
00000220: 3be1 36bf 36d4 b73d 7f46 51bd 499b 13bf
00000230: 569b 063f e2ea 77be cd24 a53c f845 693e
00000240: 529a 963d 5725 6b3e ad5d 48bb 2505 8aba
00000250: 2fd4 0b3f 6616 053f 4881 1680 7898 0f80
00000260: 7ca6 e4bd ef6a 6abe 9178 e13e 59d9 cf3e
00000270: 0dc2 27be 6640 5f3d 3917 043e b9cf 773c
00000280: 34b7 f33e 319e 06bf 4b65 ffbe cf65 dcbe
00000290: 7972 fabd 748a ffbe 9d59 2f3f 2407 30bc
000002a0: 422b fc3e 0ac8 3e3e d98a 89b8 43b9 3fb8
000002b0: 62a1 d03e 903a 123f 3a42 383e 2d58 afbd
000002c0: 4c28 d7be 74e0 25bd 1ba5 173f cc13 c73d
000002d0: dced 3dbe 0df1 fb3e bc2d 103f afc9 5b3e
000002e0: cbc6 293f 6ea6 b23d eb31 efbe f557 bcbe
000002f0: 662a 0a3f 53bb 82be ca95 d8be 194e d73e
00000300: 0b84 2fbf dd34 2c3c 127d fe3e 123c 583e
00000310: e845 2680 233b 42b3 065c cd3e 384c 0c3e

input_layer.bias f4 [100]
-2.4780413e-09 0.19650765 0.3314819 -0.20159905 0.000990158 -0.13990662 0.105333306 -0.0003666595
-9.658175e-39 -0.0013823527 -0.00025822048 0.3352306 -0.4970893 -0.1571565 0.5053395 0.55784774
-3.483976e-39 -0.37155294 -1.532505e-39 0.5285461 -2.9052957e-29 0.2776486 -2.5921393e-06 0.0929021
0.009462499 0.23761705 -1.4075216e-06 -8.368252e-13 0.22189206 -0.00088016456 -5.728374e-39 -0.1679728
0.051802605 0.0316458 -4.48433e-32 -5.680298e-24 -1.265815e-31 0.21612495 -0.1247451 -0.005406601
0.56941754 0.20732993 0.46107107 -0.44971663 -0.0002489459 0.00023468958 0.47294262 0.12247326
0.3338533 0.16871525 0.023055872 -0.06600109 0.00081500417 0.3358482 -5.285669e-18 -0.03340685
0.33966073 0.70034057 0.5355522 -6.7690475e-05 0.39349687 -2.615933e-19 -2.690802e-09 0.46759376
0.0002937799 0.035029404 0.010853601 -3.9130544e-18 0.01448305 0.05338952 -0.21430197 -0.19405401
0.5922424 0.0004535177 -0.2471423 -3.6911993e-37 0.5694998 -0.3271973 0.13846967 0.6091275
0.51993716 0.50314075 0.41085592 0.4283555 -0.30676416 -6.968486e-05 -0.28879994 0.1326455
0.6815577 -0.023786675 0.4858155 -0.04551768 0.612953 0.6722443 0.309786 0.49934942
0.053288486 -0.14906813 -4.940645e-08 -0.4015957
00000000: 2a4a 2ab1 4d39 493e ffb7 a93e fb6f 4ebe
00000010: 30c8 813a ae43 0fbe fdb8 d73d 343c c0b9
00000020: 102b 6980 0f30 b5ba c461 87b9 58a3 ab3e
00000030: 7d82 febe a2ed 20be ee5d 013f 1ccf 0e3f
00000040: e8ef 2580 303c bebe 00b0 1080 cc4e 073f
00000050: e550 1390 f527 8e3e 9df4 2db6 7543 be3d
00000060: 9908 1b3c e251 733e 13ea bcb5 9c8b 6bab
00000070: ac37 633e d8ba 66ba 6060 3e80 1001 2cbe
00000080: f82e 543d 079f 013d f8d6 688b f2be db98
00000090: eb4f 248c dc4f 5d3e 5c7a ffbd db29 b1bb
000000a0: 59c5 113f 4c4e 543e 8211 ec3e 4241 e6be
000000b0: f484 82b9 0117 7639 8925 f23e 43d3 fa3d
000000c0: d2ee aa3e b1c3 2c3e abdf bc3c 942b 87bd
000000d0: 01a6 553a 4cf4 ab3e bb01 c3a2 9fd5 08bd
000000e0: 03e8 ad3e 8549 333f f319 093f 0cf5 8db8
000000f0: 6c78 c93e dd6a 9aa0 17e9 38b1 7368 ef3e
00000100: 7906 9a39 fe7a 0f3d 4dd3 313c c15d 90a2
00000110: 514a 6d3c f8ae 5a3d fa71 5bbe 18b6 46be
00000120: 339d 173f 1ec6 ed39 df12 7dbe c335 fb82
00000130: bdca 113f 6886 a7be feca 0d3e c8ef 1b3f
00000140: 9a1a 053f d5cd 003f b55b d23e 6951 db3e
00000150: 3110 9dbe c623 92b8 96dd 93be 39d4 073e
00000160: 917a 2e3f 46dc c2bc cfbc f83e bf70 3abd
00000170: 7dea 1c3f 3418 2c3f 459c 9e3e baaa ff3e
00000180: 0745 5a3d 51a5 18be f732 54b3 f49d cdbe

res_layer.0.hidden1.weight f4 [100, 100]
5.511184e-39 0.07068288 0.0067794793 -0.012004124 0.00011835552 -0.04976723 -0.05384611 8.653654e-08
4.451499e-39 -0.12449444 -2.8709973e-08 0.07373615 0.048546802 0.027796853 0.018870857 0.04951646
5.364709e-39 0.011608361 -3.158291e-39 -0.0033046834 3.204018e-39 0.06322778 -3.1311306e-13 0.012397751
-0.06058483 0.03760579 2.417688e-39 -2.616378e-19 -0.052739024 0.04534399 -2.937615e-39 -0.06776128
-0.053361353 0.05566346 5.301448e-39 3.897527e-39 -1.354428e-39 0.002382537 -0.09287194 -0.04055758
0.09694552 0.047059115 -0.033335358 0.014509795 -6.9946713e-12 0.0010477272 -0.08631829 0.057397842
-0.059832696 -0.0019356813 -0.055177554 0.07127552 -0.00025295414 0.045642145 -6.132587e-39 -0.013855185
-0.0935896 -0.087206885 0.086990416 1.0624242e-11 -0.08492328 2.470153e-39 -2.63304e-39 -0.03658966
6.546457e-05 0.085236564 -0.07172973 -2.491139e-39 -0.044409674 0.009094474 0.009118982 0.050024506
0.083372414 0.00013756118 0.09705672 9.88431e-40 -0.023305861 0.101830915 -0.06390846 -0.043189798
-0.045185965 -0.06779344 0.0794979 -0.08421748 0.024927692 3.710156e-39 0.010601278 0.04120983
-0.06425887 0.07210947 0.08232577 0.042851165 0.08157625 -0.036372073 0.059115846 0.004433148
-0.15598892 0.09537852 1.562829e-39 0.014136583 -1.314743e-39 0.080997385 -0.05728107 -0.0038824463
0.00021906837 0.005750137 -0.059354406 1.5341925e-08 -3.119481e-39 -0.02008828 3.8741184e-08 -0.062329266
0.117885165 0.02082538 0.083277635 0.060754765 3.513705e-39 0.0017355813 -1.152215e-39 0.019571878
5.30263e-40 0.06811706 -1.1065686e-13 -0.020715633 0.091862984 -0.06186487 -5.6259e-39 -1.2467655e-19
-0.0025741395 0.019161304 9.3887e-41 0.031815756 0.097682774 0.027944542 5.137104e-39 5.358913e-39
4.90635e-39 0.029786315 0.0046032304 -0.017089626 -0.060472637 -0.041109458 0.055287678 0.047796145
-6.3521464e-09 0.00048469854 0.070165075 0.017694587 0.020856703 0.010012307 -0.038385615 0.03846912
0.00023887792 0.102676734 -2.102295e-39 0.039659727 -0.076140545 0.03516227 0.00817359 4.5169483e-13
0.00730162 4.321728e-39 4.932245e-39 0.07388619 7.287986e-05 0.04734264 -0.022631465 -5.319363e-39
-0.06855986 -0.01526121 -0.002729645 0.07706386 -0.025285933 2.4525149e-05 -0.026003677 -2.279442e-39
0.034597345 0.04315953 0.018505244 -0.06932821 0.0276568 -0.067351736 -0.02789389 -0.058405004
-0.0008997958 4.977872e-39 0.066291675 0.057962444 0.044582993 0.06605703 0.04491261 0.02043074
0.016645195 -0.046606317 0.05001793 -0.046416134 -0.014852355 0.029081652 -4.245587e-39 0.002463047
2.783371e-39 -1.0654316e-34 2.7103835e-34 4.8071676e-34 2.3552594e-36 -4.3515754e-34 4.956976e-39 -5.393273e-39
3.188425e-39 3.26044e-39 9.51044e-40 6.38544e-34 -4.2517185e-34 1.4142959e-33 1.2444958e-33 -1.9666959e-33
-1.324855e-39 1.3055293e-34 -3.702802e-39 -3.4314914e-34 -6.46357e-40 6.1894025e-36 -4.879714e-39 1.4614189e-33
-3.4170565e-34 2.3259684e-38 1.371423e-39 -1.179064e-39 -9.054374e-35 -6.37886e-34 3.368352e-39 -6.310704e-34
-1.9650096e-34 -9.798951e-35 -3.775446e-39 -2.715346e-39 -6.08399e-40 1.2502114e-34 2.986873e-39 -4.134817e-39
9.145168e-34 5.146647e-35 -8.980027e-34 -5.268204e-34 3.124896e-39 1.1882785e-35 -1.25672055e-33 -2.590816e-34
-9.91554e-35 3.2237983e-34 4.8794945e-34 6.1688924e-34 -4.460443e-36 4.447007e-35 -2.435715e-39 6.3746342e-34
00000000: f002 3c00 30c2 903d 6526 de3b f2ac 44bc
00000010: a335 f838 b9d8 4bbd bd8d 5cbd f7d5 b933
00000020: f878 3000 f1f6 febd e69d f6b2 fb02 973d
00000030: 03d9 463d 3ab6 e33c 0e97 9a3c c6d1 4a3d
00000040: a06a 3a00 ff30 3e3c 0864 2280 6393 58bb
00000050: 80e3 2200 917d 813d 5944 b0aa f01f 4b3c
00000060: cc27 78bd 8708 1a3d 8853 1a00 9671 9aa0
00000070: e004 58bd 9fba 393d e0fc 1f80 6dc6 8abd
00000080: 6f91 5abd 5eff 633d 48ba 3900 b870 2a00
00000090: 98bf 0e80 5624 1c3b a533 bebd b41f 26bd
000000a0: 5f8b c63d 0fc1 403d a88a 08bd 7eba 6d3c
000000b0: 661a f6ac e453 893a a5c7 b0bd 001a 6b3d
000000c0: 2113 75bd b0b6 fdba dc01 62bd e6f8 913d
000000d0: ee9e 84b9 42f3 3a3d 28c7 4280 dc00 63bc
000000e0: e7ab bfbd 8699 b2bd 0828 b23d 55e7 3a2d
000000f0: 42ec adbd c8e5 1a00 d8ab 1c80 0adf 15bd
00000100: 064a 8938 8290 ae3d 09e7 92bd 4820 1b80
00000110: ebe6 35bd fd00 153c c867 153c 7fe6 4c3d
00000120: 28bf aa3d 4c3e 1039 acc5 c63d 58c3 0a00
00000130: efeb bebc ba8c d03d 70e2 82bd c9e7 30bd
00000140: eb14 39bd 49d7 8abd cccf a23d 377a acbd
00000150: 2935 cc3c 6866 2800 fcb0 2d3c a4cb 283d
00000160: 289a 83bd 21ae 933d 6a9a a83d b484 2f3d
00000170: 7311 a73d e2fa 14bd 7523 723d f143 913b
00000180: 8fbb 1fbe d055 c33d 8804 1100 209d 673c
00000190: f850 0e80 f5e1 a53d 8e9f 6abd a470 7ebb
000001a0: b8b5 6539 a56b bc3b 9b1d 73bd 40c9 8332
000001b0: d8f7 2180 2d90 a4bc 6264 2633 f94c 7fbd
000001c0: c76d f13d fd99 aa3c 778d aa3d fdd9 783d
000001d0: c842 2600 727c e33a e88b 0c80 3455 a03c
000001e0: 28c6 0500 f580 8b3d 562d f9a9 d5b3 a9bc
000001f0: a922 bc3d 0566 7dbd b842 3d80 2d31 13a0
00000200: e5b2 28bb 2bf8 9c3c b805 0100 3d51 023d
00000210: e80d c83d f4eb e43c 28f0 3700 785a 3a00
00000220: e86c 3500 6e02 f43c b2d6 963b 8bff 8bbc
00000230: 28b2 77bd 6462 28bd 5575 623d e4c5 433d
00000240: 1242 dab1 231f fe39 b5b2 8f3d 3df4 903c
00000250: addb aa3c a90a 243c 3c3a 1dbd cc91 1d3d
00000260: 4e7b 7a39 2e48 d23d 58e4 1680 3d72 223d
00000270: 93ef 9bbd 5006 103d 85ea 053c 1648 fe2a
00000280: 6e42 ef3b 380f 2f00 18b5 3500 a551 973d
00000290: 14d7 9838 5bea 413d 9f65 b9bc 38ec 3980
000002a0: 1d69 8cbd 270a 7abc d8e3 32bb a8d3 9d3d
000002b0: 7224 cfbc 5bbb cd37 aa05 d5bc 28d2 1880
000002c0: f2b5 0d3d 0cc8 303d 4f98 973c f3fb 8dbd
000002d0: 8390 e23c b5ef 89bd ba81 e4bc 163a 6fbd
000002e0: 46e0 6bba 4834 3600 eec3 873d 076a 6d3d
000002f0: a89c 363d e848 873d 49f6 373d 5e5e a73c
00000300: 815b 883c 44e6 3ebd 9adf 4c3d d81e 3ebd
00000310: 4b57 73bc a53c ee3c f83a 2e80 126b 213b
00000320: e84e 1e00 c29e 0d87 c922 b407 dcbe 1f08
00000330: 025d 4804 1c9b 1088 08fa 3500 40ba 3a80
00000340: 08b8 2200 c880 2300 205b 0a00 5131 5408
00000350: 9f49 0d88 7ffd ea08 ffc6 ce08 ff62 2389
00000360: 286d 0e80 dc88 2d07 e851 2880 cd0f e487
00000370: c809 0780 50a2 0305 a822 3580 e3d1 f208
00000380: 341a e387 8946 fd00 f8ee 0e00 c0d6 0c80
00000390: e0b4 f086 57f9 5388 98ad 2400 88b5 5188
000003a0: e898 8287 1a40 0287 681c 2980 4891 1d80
000003b0: f89f 0680 7d2e 2607 3086 2000 3006 2d80
000003c0: 3ef3 9708 44d2 8806 cf34 9588 ec10 2f88
000003d0: f006 2200 09b8 7c05 fbce d088 7330 ac87
000003e0: d6cc 0387 1642 d607 2626 2208 22ff 4c08
000003f0: ecb9 bd84 8671 6c06 c885 1a80 64d5 5308

res_layer.0.hidden1.bias f4 [100]
0.09843327 -0.023749502 -4.309704e-34 -0.01155749 -0.026090428 -0.016007612 -0.008906718 0.06876278
0.005554882 -0.07287397 -0.0528283 -0.007108137 0.023464635 -0.06382325 -0.057473227 -0.026084675
-0.024547996 0.058082063 -0.007451633 -1.9771178e-38 0.00060151936 -0.060530428 0.09321546 -9.500878e-38
0.09992401 -9.5169433e-32 0.023516254 0.06052573 -0.02940484 0.09246621 -0.009658946 -3.839367e-39
-0.02924206 -2.29241e-40 -0.006825973 0.103879094 -0.0415929 0.005046357 -0.001435154 0.10105462
0.094068564 0.0873461 0.03946467 -0.10110283 -0.07387365 0.094413385 -0.056859914 0.010317647
0.0420384 0.09227162 -0.09417763 -4.13271e-40 0.049120277 0.0144787645 -0.04236164 -0.018463241
0.013913618 -0.016473416 0.09861654 0.10745145 -0.08037532 0.095522575 -1.006513e-39 -0.010055898
-0.007801876 -8.986498e-32 -6.734237e-39 2.361939e-39 -1.1584445e-38 0.031934932 0.04074286 -0.06715874
0.012488735 -0.05963428 0.10562698 -5.423599e-36 0.00686559 0.078015566 0.03342199 0.06462133
0.042113878 -0.04921572 0.045661062 0.096185215 -5.235543e-39 -0.012223649 0.092485756 -0.08403189
-0.08254579 -0.0015286995 0.093636066 -0.074537694 0.028580146 -4.894242e-39 -0.005312789 -2.4352056e-38
0.0011733915 0.08854882 0.007418592 0.040918358
00000000: 6297 c93d 518e c2bc e836 0f88 a05b 3dbc
00000010: 98bb d5bc 6522 83bc 7ced 11bc 80d3 8c3d
00000020: ba05 b63b f33e 95bd 7d62 58bd 60eb e8bb
00000030: e838 c03c c4b5 82bd 0c69 6bbd 87af d5bc
00000040: e118 c9bc 75e7 6d3d d42c f4bb 004a d780
00000050: 48af 1d3a c1ee 77bd bfe7 be3d ba51 0182
00000060: f6a4 cc3d f012 f78b 29a5 c03c d4e9 773d
00000070: 6be2 f0bc ed5e bd3d 8e40 1ebc 98ce 2980
00000080: 0b8d efbc 087f 0280 69ac dfbb 90be d43d
00000090: 515d 2abd e95b a53b c71b bcba baf5 ce3d
000000a0: 05a7 c03d 83e2 b23d b5a5 213d 000f cfbd
000000b0: 114b 97bd ce5b c13d f1e5 68bd 590b 293c
000000c0: 7530 2c3d e7f8 bc3d 34e0 c0bd 0880 0480
000000d0: 5832 493d 5738 6d3c 6683 2dbd 3940 97bc
000000e0: f2f5 633c 42f3 86bc 78f7 c93d 810f dc3d
000000f0: d19b a4bd 57a1 c33d c0f5 0a80 7ec1 24bc
00000100: e1a6 ffbb 864d e98b 5054 4980 20b8 1900
00000110: b824 7e80 34ce 023d fce1 263d 858a 89bd
00000120: 8d9d 4c3c 1343 74bd f552 d83d c3b1 e684
00000130: bef8 e03b a0c6 9f3d 7fe5 083d 3058 843d
00000140: 9a7f 2c3d 6c96 49bd 1807 3b3d c1fc c43d
00000150: 9002 3980 b345 48bc 2c69 bd3d e918 acbd
00000160: c40d a9bd a55e c8ba 44c4 bf3d 38a7 98bd
00000170: e920 ea3c 284b 3580 e816 aebb d095 0481
00000180: 7ccc 993a 1559 b53d a917 f33b 029a 273d

res_layer.0.hidden2.weight f4 [100, 100]
0.06814281 0.04477922 2.5363766e-34 0.015471088 0.10599668 0.010763881 0.120889075 -0.07673147
0.12533587 0.092556566 0.023403615 0.03776253 -0.08645579 0.1322116 0.042691063 0.011414578
-0.038360376 -0.00720529 0.07655506 1.3518214e-38 -0.006963125 0.054696076 0.1132562 7.295291e-38
0.013415199 4.2874878e-32 -0.06565359 0.05184276 0.029029477 0.010788728 -0.0040647453 2.43635e-40
-0.048802502 -1.646402e-39 0.014450494 -0.059979584 0.035966676 0.01958852 -0.059712254 0.094306394
0.06536282 0.061236225 0.011433013 -0.035323415 -0.03035428 -0.03880764 -0.12428337 0.077553116
0.07091073 -0.0888827 -0.07994375 1.049259e-39 0.07251672 0.026452664 0.12234821 0.010764138
-0.071639225 0.041826423 0.051125992 -0.016424723 0.070227936 -0.03366478 7.54706e-40 0.09372977
0.07109643 5.604331e-32 3.017702e-39 3.7878e-39 3.283825e-39 0.058518197 0.07338655 0.038868323
0.005498429 -0.059081215 -0.013951835 4.2106912e-36 -0.049796455 -0.04579397 -0.077541165 -0.054584403
0.00017398062 -0.00030386032 -0.05774386 0.039876778 2.148796e-39 0.03306852 0.062562265 0.09990805
0.122034244 -0.013162522 0.07701571 0.084267475 -0.014770045 -7.9695e-41 0.03708051 1.977185e-38
0.007179125 -0.09216623 0.045596533 0.003706191 -0.00031126762 0.097913206 -1.4244953e-34 -0.056093425
-0.0010157031 0.06399523 0.08218444 -0.039124034 -0.053290688 0.05816504 0.03643819 0.03252784
-0.057707015 0.082769245 0.04417831 -0.041490596 0.021518204 0.053300213 -0.041001618 -3.170892e-39
0.093187205 0.049228676 0.06264049 -1.5071682e-38 -0.033112995 -4.3030325e-32 -0.046180364 0.0143723525
0.06894813 0.065238275 0.07350349 2.658398e-39 0.014992036 5.869557e-39 -0.02648691 -0.0512602
-0.061982173 -0.035017252 -0.06827999 0.0601112 -0.028117549 0.007790484 0.006208312 -0.07166236
-0.012215758 0.06190843 -0.02113468 -0.06460467 0.005547159 -0.06648134 -0.15259726 -7.04024e-40
0.088341475 0.05494555 0.09856789 -0.04105085 -0.008478316 -0.025874835 0.017428681 0.0048934463
0.047514822 0.034574527 1.0707e-40 0.11048775 -0.024904262 -2.1225975e-32 4.315842e-39 4.83459e-40
1.326435e-39 0.02599202 0.04354058 0.042982187 0.024091706 -0.073369354 0.09401591 -7.2684656e-37
-0.040942114 -0.051434167 0.009385456 -0.018147672 -0.008989537 -0.06460762 0.027455634 0.05301978
2.347635e-39 -0.0027955845 0.07785559 0.028134579 -0.026641123 -0.084258325 -0.0524498 0.033945072
-0.08739883 3.789021e-39 0.07992195 -2.887482e-39 -0.043075833 -0.06283058 0.015140196 -0.023097223
0.050764203 -0.0054253903 7.418955e-34 0.057919633 0.036089808 0.07766563 -0.07589939 -0.013065581
0.03032158 0.054520965 -0.0062103732 0.050169434 -0.071908206 -0.030069826 0.03949972 -0.019853301
-0.059591647 0.017072732 0.014992804 4.1321018e-38 -0.06427127 0.013210731 0.03572318 2.2346332e-37
0.016287625 1.0554194e-31 0.08861921 0.096362986 0.012907751 -0.049148668 0.03579617 -1.914488e-39
0.023469498 5.928266e-39 0.11363377 -0.037849277 -0.028771618 0.07640856 -0.08474566 -0.0347018
-0.0045199315 0.03752684 0.09103146 -0.03563253 0.050448384 -0.08174747 -0.10814436 -0.08060843
0.021409275 -0.077830605 -0.060824197 9.97758e-40 0.0549215 -0.09254187 0.06460637 -0.029796153
00000000: 758e 8b3d 6a6a 373d 3692 a807 727a 7d3c
00000010: ca14 d93d fd5a 303c b194 f73d 6425 9dbd
00000020: 0c58 003e 4c8e bd3d f0b8 bf3c e2ac 1a3d
00000030: bc0f b1bd 7a62 073e d3dc 2e3d 3604 3b3c
00000040: c51f 1dbd 5a1a ecbb e6c8 9c3d 4833 9300
00000050: ed2a e4bb fe08 603d def2 e73d c298 c601
00000060: 6ccb 5b3c 7d9e 5e0b 6475 86bd 1359 543d
00000070: 3acf ed3c 34c3 303c 8e31 85bb 28a7 0200
00000080: 22e5 47bd 80ed 1180 c4c1 6c3c 27ad 75bd
00000090: cb51 133d 1b78 a03c d694 74bd b623 c13d
000000a0: f1dc 853d d6d2 7a3d 8851 3b3c 49af 10bd
000000b0: 8aa9 f8bc c3f4 1ebd 4888 febd 2bd4 9e3d
000000c0: a539 913d 2208 b6bd 8cb9 a3bd e86c 0b00
000000d0: a583 943d 42b3 d83c b391 fa3d 115c 303c
000000e0: 96b7 92bd 2f52 2b3d 7d69 513d 248d 86bc
000000f0: aad3 8f3d 15e4 09bd d037 0800 65f5 bf3d
00000100: 019b 913d 2b7f 910b 20dc 2000 d83e 2900
00000110: f8c1 2300 c7b0 6f3d b04b 963d 6434 1f3d
00000120: 2a2c b43b 25ff 71bd 3d96 64bc 5e1a b304
00000130: 5ef7 4bbd 7592 3bbd e7cd 9ebd e593 5fbd
00000140: 916e 3639 714f 9fb9 d384 6cbd d555 233d
00000150: f865 1700 db72 073d a520 803d 979c cc3d
00000160: 17ed f93d 9ea7 57bc 6aba 9d3d 6d94 ac3d
00000170: 0ffe 71bc 28de 0080 bce1 173d e04b d700
00000180: de3e eb3b a6c1 bcbd 6ec3 3a3d 91e3 723b
00000190: a231 a3b9 b886 c83d 1059 3d87 38c2 65bd
000001a0: 5721 85ba ee0f 833d 5150 a83d 8640 20bd
000001b0: 5647 5abd 773e 6e3d 3640 153d ea3b 053d
000001c0: 315e 6cbd ec82 a93d 51f4 343d 0bf2 29bd
000001d0: f246 b03c 5351 5a3d 50f1 27bd 2887 2280
000001e0: efd8 be3d 02a4 493d a849 803d b81d a480
000001f0: 7ea1 07bd 1d6d 5f8b 9f27 3dbd 047a 6b3c
00000200: ad34 8d3d a59b 853d ff88 963d 88f2 1c00
00000210: 28a1 753c f0e9 3f00 14fb d8bc 37f6 51bd
00000220: 05e1 7dbd 406e 0fbd 61d6 8bbd 2937 763d
00000230: c656 e6bc 5147 ff3b 196f cb3b b7c3 92bd
00000240: 9a24 48bc b293 7d3d a322 adbc 744f 84bd
00000250: f1c4 b53b 5e27 88bd 7542 1cbe 88aa 0780
00000260: 60ec b43d 960e 613d f6dd c93d f024 28bd
00000270: a2e8 0abc 76f7 d3bc 98c6 8e3c 3459 a03b
00000280: e79e 423d 059e 0d3d 782a 0100 6747 e23d
00000290: 0604 ccbc 526c dc8a d0fe 2e00 b043 0500
000002a0: 9071 0e00 37ed d43c 9b57 323d 170e 303d
000002b0: f85b c53c ac42 96bd 6a8b c03d 4455 7783
000002c0: ebb2 27bd a2ac 52bd 75c5 193c 6daa 94bc
000002d0: da48 13bc 0051 84bd a3ea e03c 452b 593d
000002e0: 4090 1900 2036 37bb c072 9f3d 7d7a e63c
000002f0: 7c3e dabc a18f acbd 9ad5 56bd fd09 0b3d
00000300: 28fe b2bd 4042 2900 1fae a33d 2071 1f80
00000310: 4970 30bd 52ad 80bd 960e 783c 6336 bdbc
00000320: 20ee 4f3d 79c7 b1bb 7d89 7608 233d 6d3d
00000330: e8d2 133d 280f 9f3d 2471 9bbd 0511 56bc
00000340: f664 f83c 6051 5f3d 6380 cbbb 777e 4d3d
00000350: 9c44 93bd ff54 f6bc 75ca 213d 64a3 a2bc
00000360: 5f16 74bd 1ddc 8b3c 61a4 753c 18f9 6001
00000370: a8a0 83bd d271 583c 7852 123d cd14 9802
00000380: a06d 853c 5300 090c fd7d b53d f559 c53d
00000390: 087b 533c 1d50 49bd 019f 123d d0d8 1480
000003a0: 1b43 c03c 988d 4000 d2b8 e83d d807 1bbd
000003b0: 75b2 ebbc 177c 9c3d 228f adbd 7a23 0ebd
000003c0: ef1b 94bb beb5 193d b46e ba3d 6af3 11bd
000003d0: f7a2 4e3d 386b a7bd ca7a ddbd 0816 a5bd
000003e0: 8162 af3c a765 9fbd cb22 79bd 58dd 0a00
000003f0: 5ef5 603d 9886 bdbd 5850 843d 1017 f4bc

res_layer.0.hidden2.bias f4 [100]
-0.06987167 0.016271396 0.07147698 0.043826602 0.06726458 0.03645288 0.058083676 0.05907748
0.050229013 -0.024849582 -0.0010661272 -0.04795937 0.05922149 0.045092892 0.014467353 -0.04776052
-1.4275024e-26 0.026328191 -2.1000296e-29 0.07489602 0.07466927 0.06687954 -0.02039132 -0.07523443
0.00093048275 0.050216947 0.009143566 -0.017728886 0.04033981 -0.051897064 -4.9139182e-29 -0.0013307434
0.06737385 0.07160632 0.06658773 0.065561466 0.04524125 0.09713064 -0.016385045 -0.07243003
0.09072126 0.004091878 0.045169655 0.054809395 0.049452383 -0.058058456 -0.08523626 -0.02558929
-0.015588289 -0.04447303 0.0894784 0.024537247 0.05870837 -0.065517366 0.046354096 -0.12490836
-0.042279527 0.0331984 -0.030188682 -0.02691011 0.0063594505 0.030024972 0.023366598 -0.07823908
-0.08082358 0.0052304137 0.051918563 -9.521501e-05 -0.020626012 0.11171092 0.1076723 -0.0062765433
-0.049382497 -0.002635046 -0.08776864 0.09843563 0.07490625 0.064715706 -0.041839264 -0.04574617
-0.078993276 0.072205946 -0.03232176 -0.0771912 -0.08814669 -0.073983915 -0.054181676 0.028723495
-0.044279847 -0.0038907072 -0.029873887 0.089605786 -0.023181474 0.08068538 -0.051276688 -0.002826582
0.004306382 0.07870088 0.049559902 0.03854647
00000000: e118 8fbd 974b 853c 8662 923d 8683 333d
00000010: 03c2 893d 9d4f 153d 26e9 6d3d 3afb 713d
00000020: f0bc 4d3d 5a91 cbbc 4bbd 8bba 0b71 44bd
00000030: 3c92 723d 53b3 383d 7a08 6d3c 89a0 43bd
00000040: 7c5f 8d94 38ae d73c e3f7 d48f 1663 993d
00000050: 34ec 983d 24f8 883d b30b a7bc 8214 9abd
00000060: a4eb 733a 49b0 4d3d e5ce 153c 2b3c 91bc
00000070: 5b3b 253d 0492 54bd 4e2a 7990 576c aeba
00000080: 4dfb 893d 56a6 923d 265f 883d 1745 863d
00000090: e44e 393d 6eec c63d ee39 86bc 3256 94bd
000000a0: 11cc b93d 2915 863b d103 393d d17f 603d
000000b0: 958e 4a3d b4ce 6dbd 5990 aebd a1a0 d1bc
000000c0: 0666 7fbc 5a29 36bd 7440 b73d 5602 c93c
000000d0: 3078 703d f82d 86bd cbdd 3d3d f4cf ffbd
000000e0: 4c2d 2dbd 0cfb 073d 414e f7bc 9772 dcbc
000000f0: f062 d03b eef6 f53c 4f6b bf3c d03b a0bd
00000100: d586 a5bd e463 ab3b 8fa8 543d 2bae c7b8
00000110: e2f7 a8bc b2c8 e43d 4b83 dc3d 76ab cdbb
00000120: 4d45 4abd bcb0 2cbb 0bc0 b3bd 9f98 c93d
00000130: 7368 993d ab89 843d a65f 2bbd 5660 3bbd
00000140: 3ac7 a1bd b6e0 933d d263 04bd 6b16 9ebd
00000150: 4086 b4bd e184 97bd 9bed 5dbd 894d eb3c
00000160: c95e 35bd 3cfb 7ebb 15ba f4bc 3d83 b73d
00000170: 13e7 bdbc 603e a53d 8107 52bd 2d3e 39bb
00000180: 8d1c 8d3b ed2d a13d 53ff 4a3d e7e2 1d3d

res_layer.1.hidden1.weight f4 [100, 100]
0.030972969 -0.00070773903 0.0021305932 0.004036928 -0.06008432 0.027128117 -0.0016598299 0.009362548
0.0114345215 0.07072647 -0.06344794 0.08567941 -0.070164494 -0.071389735 -0.085605666 0.03224196
-1.022645e-39 0.055869382 -9.84978e-40 0.018919274 -0.06724496 -0.0034640806 0.045073923 0.039095268
-0.08496617 0.09526454 -0.026250206 0.07212872 -0.06832799 -0.017786145 3.4887e-41 -0.061844587
-0.044586625 -0.022897782 0.014541092 0.09421923 -0.05256386 0.074901 0.0056760446 -0.050969362
-0.027136685 -0.005120844 0.062468696 -0.0714616 -0.019831296 0.0033463032 0.027218832 0.03731988
-0.042106427 -0.01591449 0.09768861 -0.01808616 -0.0633938 0.091187105 -0.0153757 -0.019280542
0.06410694 0.048907433 0.033406533 0.09424303 -0.028042007 -0.07105749 0.0723709 -0.01719441
-0.0734043 0.07342247 0.05884779 -0.0017448735 0.0029715796 0.010364445 -0.060494334 0.010638229
-0.042061944 -0.0049358634 0.034789816 -0.05631619 -0.07370554 -0.040361334 -0.0017494612 0.04365191
-0.013488197 -0.061003223 -0.029607462 -0.0025875813 0.007135778 -0.020717062 0.016653573 0.057706308
0.010947024 0.04845762 -0.018602423 -0.029015262 -0.00011799946 0.042354114 -0.008311891 0.021076173
-0.033516634 0.09022063 0.016168952 0.048598118 -0.019786123 0.041804917 0.10741028 0.076099366
0.07746939 -0.024407294 -0.07550905 0.062733136 -0.008815366 -0.048694108 0.012230622 -0.01756369
0.067942016 0.08084677 0.0014936003 -0.039364606 -5.08011e-39 -0.10734894 5.816218e-39 0.015785076
0.056401324 -0.0011045352 0.11883217 0.011943362 -0.027788669 0.009098138 -0.090419225 0.03504989
0.02177646 -0.06223312 5.042511e-39 0.05401148 0.12266791 -0.050357543 0.014484841 0.08111675
0.06174813 -0.011274057 0.033269197 -0.085880026 -0.014055076 -0.018444316 -0.022283504 0.06860778
-0.03590202 0.111503996 -0.006364586 -0.0125894295 -0.074686505 0.02772426 0.113500305 0.05965229
0.014919703 -0.042747688 0.0071650473 0.009641381 0.028044038 0.018788662 0.10026883 -0.108864725
0.007141262 0.006128653 0.12934199 -0.0069796047 0.017866643 -0.024083199 -0.12880577 -0.0012299202
-0.0025511144 0.033068035 -0.13143589 -0.006980108 0.041173723 0.016290588 0.09663897 0.12342408
0.02715976 -0.047341295 -0.013167366 -0.03040545 0.055511832 -0.03571346 -0.09046391 0.0019211748
-0.009322966 0.010473125 0.04963349 0.11862392 -0.019410288 0.021730384 0.061345387 0.044943664
0.0992812 -0.03699222 0.013272887 -0.016721854 -0.05656887 0.024310207 0.10961232 -0.1284777
0.049584616 -0.04092443 -0.036968887 -0.00018006825 0.030380784 -0.015360178 -0.019243542 0.122669265
0.04726608 -0.0125706475 0.10159855 0.057830982 0.03393395 -0.07648134 0.08187748 -0.07582729
-2.196776e-39 -0.09991047 4.150837e-39 -0.010714319 0.050195754 0.04111527 0.13188942 -0.03964766
-0.032503575 -0.07607012 -0.08063965 0.047531813 -0.038034678 -0.102789804 5.169838e-39 -0.05334968
0.11551852 -0.09270642 -0.053705577 0.08770994 0.08426366 -0.014166368 0.027239358 -0.031462815
0.048524454 -0.04007495 0.060972493 -0.028171143 -0.022033561 0.04048455 -0.097719826 -0.0017731101
0.059139017 0.015761003 0.040343992 0.13024218 0.077573456 0.009847163 -0.0028173442 0.005615376
00000000: 06bb fd3c 9087 39ba 6ca1 0b3b 3548 843b
00000010: fa1a 76bd c93b de3c a68e d9ba 5f65 193c
00000020: dc57 3b3c 0ad9 903d fef0 81bd b078 af3d
00000030: 67b2 8fbd c834 92bd 0652 afbd 2510 043d
00000040: b822 0b80 4bd7 643d b8b9 0a80 98fc 9a3c
00000050: bab7 89bd a105 63bb 6f9f 383d 5c22 203d
00000060: be02 aebd 0e1a c33d ac0a d7bc 39b8 933d
00000070: 8cef 8bbd 40b4 91bc 4061 0000 c050 7dbd
00000080: 77a0 36bd 2194 bbbc c33d 6e3c 03f6 c03d
00000090: 344d 57bd b265 993d 1dfe b93b 40c5 50bd
000000a0: c14d debc c1cc a7bb 2ddf 7f3d 765a 92bd
000000b0: 3e75 a2bc a74d 5b3b 07fa de3c bbdc 183d
000000c0: ca77 2cbd 1b5f 82bc f710 c83d 6d29 94bc
000000d0: 9cd4 81bd 4ec0 ba3d 5cea 7bbc 3af2 9dbc
000000e0: 804a 833d 2953 483d 4ad5 083d 7d02 c13d
000000f0: 5ab8 e5bc 9786 91bd 3237 943d 4bdb 8cbc
00000100: fe54 96bd 855e 963d 610a 713d 3db4 e4ba
00000110: d5be 423b a2cf 293c e8c8 77bd f74b 2e3c
00000120: 2549 2cbd 06bd a1bb c47f 0e3d ceab 66bd
00000130: eef2 96bd ed51 25bd 2d4e e5ba 58cc 323d
00000140: 99fd 5cbc 84de 79bd 598b f2bc 6994 29bb
00000150: 3fd3 e93b d4b6 a9bc 136d 883c 735d 6c3d
00000160: 265b 333c 7f7b 463d 1c64 98bc 6ab1 edbc
00000170: 7a76 f7b8 827b 2d3d 992e 08bc f0a7 ac3c
00000180: bd48 09bd 98c5 b83d c074 843c d20e 473d
00000190: 8216 a2bc a23b 2b3d ecf9 db3d fcd9 9b3d
000001a0: 46a8 9e3d cef1 c7bc 7da4 9abd 3b7a 803d
000001b0: 536e 10bc 7973 47bd f262 483c bae1 8fbc
000001c0: 2f25 8b3d fe92 a53d e9c4 c33a c83c 21bd
000001d0: 4851 3780 c3d9 dbbd 4055 3f00 b44f 813c
000001e0: 1305 673d 0dc6 90ba 485e f33d 17ae 433c
000001f0: 10a5 e3bc 5b10 153c b72d b9bd 7990 0f3d
00000200: 8c64 b23c 28e8 7ebd 78e8 3600 243b 5d3d
00000210: 5039 fb3d b643 4ebd d451 6d3c 8a20 a63d
00000220: 9beb 7c3d d3b6 38bc 4845 083d dee1 afbd
00000230: 4347 66bc 8918 97bc e58b b6bc 3c82 8c3d
00000240: ff0d 13bd 355c e43d 048e d0bb e543 4ebc
00000250: 3df5 98bd fd1d e33c d972 e83d f655 743d
00000260: c571 743c 3318 2fbd c6c8 ea3b e2f6 1d3c
00000270: 9cbc e53c aeea 993c bf59 cd3d 78f4 debd
00000280: 3f01 ea3b ded2 c83b 3a72 043e 2bb5 e4bb
00000290: 115d 923c 214a c5bc a9e5 03be 4635 a1ba
000002a0: 9930 27bb 5972 073d 2197 06be 64b9 e4bb
000002b0: c7a5 283d d773 853c a7ea c53d c4c5 fc3d
000002c0: 257e de3c f2e8 41bd f0bb 57bc da14 f9bc
000002d0: 6060 633d 4748 12bd 2445 b9bd eecf fb3a
000002e0: 5bbf 18bc 7897 2b3c 7d4c 4b3d 19f1 f23d
000002f0: 5302 9fbc eb03 b23c 4d45 7b3d d916 383d
00000300: f153 cb3d 2785 17bd 8676 593c 45fc 88bc
00000310: c2b4 67bd 3326 c73c 6d7c e03d a88f 03be
00000320: 3d19 4b3d 60a0 27bd b06c 17bd b4d0 3cb9
00000330: 1fe1 f83c 42a9 7bbc a2a4 9dbc 063a fb3d
00000340: 149a 413d 1ef5 4dbc e712 d03d 2ee0 6c3d
00000350: 53fe 0a3d 40a2 9cbd 61af a73d 574b 9bbd
00000360: b8eb 1780 dc9d ccbd d832 2d00 1c8b 2fbc
00000370: 109a 4d3d 7c68 283d 050e 073e 9665 22bd
00000380: 7822 05bd a7ca 9bbd 6726 a5bd b8b0 423d
00000390: 40ca 1bbd 7683 d2bd 684b 3800 3285 5abd
000003a0: f994 ec3d dddc bdbd 61fa 5bbd 45a1 b33d
000003b0: 6d92 ac3d 0e1a 68bc 1325 df3c 27df 00bd
000003c0: 94c1 463d a125 24bd 4bbe 793d 2bc7 e6bc
000003d0: ba7f b4bc 21d3 253d 5521 c8bd b467 e8ba
000003e0: c13b 723d 381d 813c be3f 253d 355e 053e
000003f0: d5de 9e3d ff55 213c 31a3 38bb 3001 b83b

res_layer.1.hidden1.bias f4 [100]
0.076125525 -0.042416304 -0.052264262 0.07728225 -0.020731455 -0.00931778 0.048726168 -0.07723361
-0.03445425 -3.612671e-39 -5.886664e-39 0.01666237 -0.03530575 -0.0408287 -1.677635e-39 -0.027698645
-0.030352239 0.08221082 -5.37774e-40 0.049015664 0.10456268 0.07555242 -0.056008875 -0.029615467
0.058961347 0.03293589 -7.65187e-40 0.08055655 0.018360805 -0.014878633 -0.057219744 0.04526263
-0.0152324205 0.07293802 -5.1276e-41 -0.017819326 0.04482508 0.008422966 -3.743294e-39 -1.14189e-39
0.035749014 0.09181969 -0.064154044 -0.0081313 -0.00828097 -0.011834661 0.032951474 0.06105872
0.057446536 0.03707392 0.005650676 -0.009505635 -0.011269349 0.055256143 -4.753092e-39 -0.07654393
0.075893894 0.0032226155 -6.24348e-39 -0.040400535 0.05956017 -0.014660886 0.065216966 0.08719502
3.55235e-40 -0.04543718 0.095301606 -0.019116258 0.04849141 -0.05406181 0.09299449 0.00689164
-0.029442757 0.008796088 0.085025445 -0.07368114 -0.01602574 -4.480041e-39 -1.673038e-39 0.01983948
-5.346346e-39 -0.045250848 -0.054128025 -0.012619152 -0.008279796 -0.062066678 0.015504211 -0.03443908
-0.011876948 0.00527084 0.08081747 0.065317534 0.04317019 -0.049161825 -0.015431197 0.011897381
-0.040274613 -2.68287e-40 -0.009845232 -0.060200512
00000000: b3e7 9b3d b8bc 2dbd 0d13 56bd 2846 9e3d
00000010: 03d5 a9bc 9aa9 18bc 1795 473d a82c 9ebd
00000020: e61f 0dbd a856 2780 a019 4080 867f 883c
00000030: c39c 10bd ff3b 27bd 9044 1280 45e8 e2bc
00000040: 42a5 f8bc 255e a83d 18db 0580 a6c4 483d
00000050: f524 d63d 3abb 9a3d 9069 65bd 239c f2bc
00000060: 7481 713d c9e7 063d 0855 0880 d5fa a43d
00000070: 6669 963c 83c5 73bc 405f 6abd 4f65 393d
00000080: 6791 79bc 8760 953d f08e 0080 d6f9 91bc
00000090: 819a 373d 7b00 0a3c c8c2 2880 206f 0c80
000000a0: 8f6d 123d f60b bc3d 3263 83bd 2539 05bc
000000b0: e8ac 07bc 2ae6 41bc 20f8 063d b518 7a3d
000000c0: 0f4d 6b3d d3da 173d 4e29 b93b 86bd 1bbc
000000d0: 13a3 38bc 4454 623d b0c1 3380 10c3 9cbd
000000e0: 426e 9b3d 8432 533b 48fc 4380 087b 25bd
000000f0: 5df5 733d 3634 70bc 7990 853d 4d93 b23d
00000100: 40de 0300 561c 3abd 7d2d c33d b399 9cbc
00000110: ee9e 463d eb6f 5dbd e573 be3d 44d3 e13b
00000120: f031 f1bc 781d 103c d221 ae3d 23e6 96bd
00000130: 6a48 83bc 88c8 3080 c037 1280 6886 a23c
00000140: 7037 3a80 f458 39bd 59b5 5dbd 8fc0 4ebc
00000150: fba7 07bc a139 7ebd 6005 7e3c fe0f 0dbd
00000160: 8897 42bc 03b7 ac3b a183 a53d 33c5 853d
00000170: 3ad3 303d e95d 49bd 22d3 7cbc 3ced 423c
00000180: fef6 24bd e0eb 0280 e54d 21bc d094 76bd

res_layer.1.hidden2.weight f4 [100, 100]
-0.06497442 -0.039636053 0.027281502 -0.049170844 0.11720134 0.05081945 -0.050511602 0.0018356319
0.0065631387 1.906977e-39 -1.712252e-39 -0.015518602 -0.02364097 0.04291718 6.03009e-39 0.013788889
0.24921979 -0.0021943138 -8.27697e-40 0.0065840827 0.046124708 -0.08931404 0.10283941 0.065796174
-0.047047358 -0.07428258 -1.195947e-39 -0.027984602 0.07989606 -0.027404401 0.026171006 0.05261725
0.013897922 0.012346802 3.619655e-39 -0.01270566 0.008798216 0.057184275 3.46688e-39 -5.247952e-39
-0.02574989 -0.04504313 -0.006620934 0.020473713 0.00050522527 -0.025890082 0.04371489 -0.030310437
0.005347002 -0.105822444 -0.012666092 0.082323685 -0.0009786397 -0.018970503 -5.136095e-39 -0.06498554
0.04236417 0.016369956 -5.015729e-39 0.103940405 0.05222441 0.034659322 0.051977903 -0.06999792
2.350628e-39 -0.06368353 -0.063313425 -0.036717225 -0.012517205 -0.0155773675 0.038142312 0.05878118
0.066004 -0.084454186 -0.05325067 0.023326324 0.10282698 -7.93023e-40 -5.849356e-39 -0.033340856
3.37121e-39 -0.040764257 0.109509386 -0.04060871 -0.0020702058 -0.025487866 -0.0510533 0.05184723
-0.05381631 -0.029188685 0.045699056 -0.058945432 -0.0033311322 0.11622279 0.034271628 0.072082564
0.031450365 3.618601e-39 -0.005351764 -0.046736043 0.080125734 0.052675474 0.10200877 -0.028097352
0.06639235 -0.024811134 -0.0018302748 -0.044290848 -0.020541312 -4.87699e-39 4.043049e-39 0.033944085
-0.017787104 0.014696397 5.993241e-39 0.1293355 -0.105084635 -0.06357521 1.669294e-39 -0.016999824
0.05565122 0.032583416 -0.047638703 -0.025244515 0.10530414 0.102298304 3.514636e-39 0.056580685
-0.009222686 0.041083936 -0.06132563 0.09909245 0.011016461 -0.062676504 -3.204635e-39 -0.013787709
-0.033024035 0.002012151 -2.343722e-39 4.591876e-39 -0.06381659 -0.09973569 -3.1805375e-06 -0.018888641
0.015607748 -0.00901504 -0.034632903 -0.08057808 -0.063908875 -0.055321347 -0.034167517 0.020764042
0.011205989 -0.048599493 4.99888e-39 0.045844644 -0.033107683 0.00030278222 5.047343e-39 -0.09423791
-0.019609286 -0.08531719 -0.0068592834 -0.016745366 -5.22404e-40 0.08686492 -0.059312113 -0.05854237
-0.077689715 -0.10366721 0.04028378 0.060740516 -0.04339258 0.09248751 -0.048325893 -0.0074825077
-0.097048685 -3.468079e-39 -3.160096e-39 0.10003798 -1.496822e-39 -0.07246583 -0.009326037 -0.025763372
0.022954674 -0.06348533 -0.025198612 -0.032892384 0.0998371 0.023828624 -0.0037302726 0.020437403
0.0006985873 0.053811368 0.054746732 0.00029335258 -0.043431062 -3.140422e-39 0.09582568 -0.07795895
0.08554362 0.09950697 0.10648502 0.070923984 0.049415853 -0.059226383 0.118907504 -0.027876418
-0.005660687 -3.553603e-39 3.538794e-39 -0.015233114 0.00915288 -0.054482818 -4.700112e-39 0.10172791
-0.09224031 -0.07847233 1.646414e-39 -0.0043923487 -0.034381516 -0.05663593 0.06861027 0.06826834
-0.05105247 -0.048168097 -4.055145e-39 -0.057678837 0.07507678 -0.007851888 -0.021370783 0.021662397
0.035181258 -0.06825689 -5.577571e-39 -0.035579026 0.04161088 0.034049656 -4.57148e-40 6.250542e-39
-0.043149594 -0.055995308 -0.04180647 0.017568158 0.11001922 -0.02292132 0.024172163 -0.10678166
0.086678304 0.07461526 -0.036140066 0.00075179327 0.031499956 -0.024581525 5.30961e-39 0.0768226
00000000: 4f11 85bd 6a59 22bd 757d df3c 5e67 49bd
00000010: 4207 f03d 0e28 503d 41e5 4ebd 9699 f03a
00000020: 990f d73b e0c3 1400 10a5 1280 bc41 7ebc
00000030: b5aa c1bc edc9 2f3d 70a9 4100 cbea 613c
00000040: 7933 7f3e 7ace 0fbb 4803 0980 4abf d73b
00000050: 43ed 3c3d 48ea b6bd 789d d23d 25c0 863d
00000060: bbb4 40bd 7721 98bd d005 0d80 f73f e5bc
00000070: 8ca0 a33d 327f e0bc 9464 d63c 2f85 573d
00000080: 1cb4 633c 3e4a 4a3c 206a 2700 672b 50bc
00000090: 6426 103c 0f3a 6a3d 40c0 2500 2825 3980
000000a0: 6ff1 d2bc 257f 38bd 6bf4 d8bb 7db8 a73c
000000b0: 1871 043a 7017 d4bc 620e 333d 984d f8bc
000000c0: e735 af3b 70b9 d8bd 7185 4fbc 5299 a83d
000000d0: b345 80ba 0768 9bbc 58ed 3780 2417 85bd
000000e0: 0d86 2d3d 491a 863c d09d 3680 b5de d43d
000000f0: 43e9 553d eff6 0d3d c8e6 543d 125b 8fbd
00000100: 9898 1900 836c 82bd 78aa 81bd cd64 16bd
00000110: f714 4dbc 3738 7fbc 1d3b 1c3d 89c4 703d
00000120: 1b2d 873d 51f6 acbd 601d 5abd d916 bf3c
00000130: f496 d23d a0a2 0880 a0b1 3f80 6c90 08bd
00000140: 90b5 2400 6cf8 26bd 7546 e03d 5255 26bd
00000150: 4aac 07bb eecb d0bc 441d 51bd c35d 543d
00000160: 7e6e 5cbd 1c1d efbc ef2e 3b3d c470 71bd
00000170: 204f 5abb 3706 ee3d 6860 0c3d 06a0 933d
00000180: 19d2 003d 3067 2700 da5d afbb 4b6e 3fbd
00000190: f618 a43d 3dc2 573d f9e9 d03d 6b2c e6bc
000001a0: b6f8 873d b840 cbbc d5e5 efba 526a 35bd
000001b0: 4146 a8bc 101b 3580 6006 2c00 f408 0b3d
000001c0: 43b6 91bc 28c9 703c b842 4100 8670 043e
000001d0: 9d36 d7bd b833 82bd 502d 1200 3743 8bbc
000001e0: 89f2 633d 3076 053d cd20 43bd 96cd cebc
000001f0: b2a9 d73d c681 d13d 6045 2600 26c1 673d
00000200: c01a 17bc a147 283d 9530 7bbd fcf0 ca3d
00000210: 637e 343c 8a5c 80bd 38e5 2280 d8e5 61bc
00000220: 3644 07bd 4bde 033b 5885 1980 4800 3200
00000230: 46b2 82bd 3a42 ccbd 3871 55b6 5abc 9abc
00000240: a4b7 7f3c d1b3 13bc 3bdb 0dbd 1f06 a5bd
00000250: a8e2 82bd a398 62bd 3df3 0bbd 5a19 aa3c
00000260: 5399 373c 4310 47bd d86e 3600 98c7 3b3d
00000270: ec9b 07bd bebe 9e39 f0f5 3600 ceff c0bd
00000280: a7a3 a0bc c7ba aebd d7c3 e0bb 942d 89bc
00000290: 40b0 0580 3ce6 b13d 42f1 72bd 20ca 6fbd
000002a0: c91b 9fbd 794f d4bd 9b00 253d 0ccb 783d
000002b0: 6bbc 31bd 176a bd3d 5ff1 45bd d32f f5bb
000002c0: 76c1 c6bd 98c3 2580 1069 2280 b6e0 cc3d
000002d0: 884c 1080 f768 94bd 3ccc 18bc b50d d3bc
000002e0: 710b bc3c 9904 82bd 526d cebc 2aba 06bd
000002f0: 6577 cc3d 3f34 c33c 9777 74bb 576c a73c
00000300: 6621 373a 4f69 5c3d 1c3e 603d 1ecd 9939
00000310: c5e4 31bd 3832 2280 4140 c43d f1a8 9fbd
00000320: 7e31 af3d 4fca cb3d d114 da3d 9840 913d
00000330: 4768 4a3d 5d97 72bd c785 f33d 165d e4bc
00000340: 497d b9bb 00b2 2680 b888 2600 5094 79bc
00000350: f6f5 153c 6029 5fbd 002e 3380 b956 d03d
00000360: 7de8 bcbd 1ab6 a0bd 88ed 1100 b1ed 8fbb
00000370: a2d3 0cbd 14fb 67bd 8b83 8c3d 45d0 8b3d
00000380: 651c 51bd e94b 45bd 1828 2c80 a540 6cbd
00000390: dbc1 993d 35a5 00bc c811 afbc 5775 b13c
000003a0: 391a 103d 45ca 8bbd 00bc 3c80 50bb 11bd
000003b0: 2c70 2a3d a777 0b3d 58fa 0480 f80f 4400
000003c0: a1bd 30bd 565b 65bd 433d 2bbd 19eb 8f3c
000003d0: c251 e13d 7ec5 bbbc b304 c63c 58b0 dabd
000003e0: 6584 b13d e3cf 983d 9b07 14bd fe13 453a
000003f0: 1906 013d 325f c9bc 08d1 3900 2b55 9d3d

res_layer.1.hidden2.bias f4 [100]
-0.07417057 0.006048587 0.035219774 0.055327117 0.056656554 0.06935707 -0.060329285 -0.052965883
0.102452904 -0.02842558 0.09932865 -0.08809214 -0.04710969 -0.04095518 -0.08900408 -0.044376697
0.021743845 0.0664212 0.071642295 -0.09404725 0.059480883 -0.034197085 0.010284348 0.06325325
-0.026428098 -0.041938204 -0.036861848 -0.034008726 -0.07077558 -0.022434521 -0.0032424114 0.045636274
-0.08250671 -4.6609333e-05 -0.031994533 2.8441038e-06 0.03962674 -0.037235904 0.002217821 -0.06525341
0.06321238 0.08881023 0.08689365 -0.00889621 -0.092824824 0.0743233 0.017161835 -0.027091369
-0.02114802 -0.08696953 -0.033949938 -0.09655138 0.010843137 -0.055834908 0.05465422 -0.019135812
0.039215498 -0.09219846 -0.027564932 -0.017272944 -0.015992666 0.07665546 -0.07815353 -0.022611763
-0.08695796 0.050230507 0.031181946 -0.03893999 -0.00963979 0.0072750184 0.069937445 0.0043112654
0.025128227 -0.009943144 -0.10895258 -0.043548193 -0.045611303 0.064364955 0.07616542 0.09768031
0.0830086 -0.004920577 0.03161048 0.08487351 0.015151393 -0.03980663 0.027778095 0.0041202256
-0.0867503 -0.00010860142 -0.07116311 0.050254006 0.009164254 -0.058230504 -0.02355098 0.081285015
-0.0077211633 0.02827978 0.019126017 -0.024673002
00000000: bde6 97bd 3a33 c63b 9c42 103d b09e 623d
00000010: b410 683d 140b 8e3d d71b 77bd c1f2 58bd
00000020: d4d2 d13d c3dc e8bc d26c cb3d a769 b4bd
00000030: 17f6 40bd 9ec0 27bd c547 b6bd 57c4 35bd
00000040: 2620 b23c d707 883d 32b9 923d d89b c0bd
00000050: 3aa2 733d 3e12 0cbd af7f 283c ec8a 813d
00000060: bd7f d8bc 65c7 2bbd 73fc 16bd bc4c 0bbd
00000070: caf2 90bd 9ac8 b7bc a37e 54bb 1aed 3a3d
00000080: 47f9 a8bd 647e 43b8 b30c 03bd 55dd 3e36
00000090: a64f 223d ad84 18bd dd58 113b 94a3 85bd
000000a0: 7e75 813d 23e2 b53d 4cf5 b13d 69c1 11bc
000000b0: f11a bebd d036 983d fa96 8c3c b8ee ddbc
000000c0: 9d3e adbc 151d b2bd 170f 0bbd bbbc c5bd
000000d0: 6aa7 313c 25b3 64bd 1add 5f3d b5c2 9cbc
000000e0: 6ea0 203d 8cd2 bcbd dacf e1bc fd7f 8dbc
000000f0: 0d03 83bc 8afd 9c3d f50e a0bd 4e3c b9bc
00000100: 0417 b2bd 81be 4d3d 4871 ff3c 8a7f 1fbd
00000110: 36f0 1dbc 4763 ee3b 5d3b 8f3d 8445 8d3b
00000120: b6d9 cd3c 92e8 22bc 8822 dfbd 975f 32bd
00000130: ebd2 3abd c6d1 833d 9efc 9b3d 9d0c c83d
00000140: 6a00 aa3d cb3c a1bb fe79 013d 2ad2 ad3d
00000150: 8c3d 783c 470c 23bd e38e e33c f502 873b
00000160: 24aa b1bd f2c0 e3b8 f7bd 91bd 25d7 4d3d
00000170: ab25 163c 1c83 6ebd fced c0bc c278 a63d
00000180: d001 fdbb ffaa e73c 2aae 9c3c 091f cabc

res_layer.2.hidden1.weight f4 [100, 100]
0.02330774 -0.017871954 0.05312147 -0.0018523054 0.029741611 0.036568735 -0.043304425 0.028943192
-0.007280208 -0.022964465 0.0275104 -0.072510876 0.02714832 0.012178426 0.0954677 0.005831462
0.04321499 0.038670838 0.04060377 -0.033770077 -0.017987631 0.029211335 -0.0021957508 0.046152193
0.014946086 -0.012442245 0.04820093 -0.07044084 0.0068046246 0.0012329887 -0.0013028142 -0.056326713
0.026675908 0.01639894 -0.0018441941 -0.0072000823 -0.032099206 0.036549605 0.06600593 -0.028528268
-0.010126283 0.051954143 -0.05219102 0.020721728 0.05195645 0.038365256 -0.059791174 -0.02241674
-0.035417587 -0.02399299 0.05908829 0.001017404 -0.015038167 -0.03222214 0.037960224 0.02078152
-0.058235727 -0.0022731991 0.0023697722 -0.037104744 0.018600605 0.015696155 0.049929712 -0.005089542
-2.205072e-39 0.06453061 -0.044294253 0.0015818279 -0.019512195 -0.081860125 -0.066972084 0.0006167956
-0.07725949 0.028794834 0.06710638 0.050561935 -0.04190815 0.021109315 0.064823456 -0.017686028
0.06918407 -0.08308636 0.07128071 -0.04451839 3.8103e-40 0.050391838 -0.15055987 0.014486231
-0.08115766 0.005539066 0.05604046 -0.018708749 0.06730505 -0.029632404 0.0026312468 -0.015256753
-6.318567e-39 -0.0003472338 0.026881725 -0.019956177 0.060803354 0.027208509 0.04482504 -0.009794212
0.07664347 0.01593597 0.06658967 0.08417665 -0.079643205 0.014639962 0.08531671 -0.02631924
0.03518644 0.017384376 0.06528672 0.03262975 0.02487083 -0.09555533 0.016486682 0.092156805
0.08331718 0.039005417 0.09000094 -0.06760387 -0.037810802 -0.070144095 -0.06320779 0.029625658
-0.04515261 0.018916937 -0.00010847528 0.044179305 -0.09076046 -0.031140694 0.08120009 0.027238386
0.011043126 0.030504094 -0.017601617 0.05613877 -0.075360015 0.05781621 -0.045040023 -0.011762648
0.012051656 -0.059279215 0.04441681 0.0068314075 0.060207315 -0.035414275 0.093679205 -0.12280547
0.068126366 -0.014562264 0.093563855 -0.011684731 0.021947544 0.0096878605 -0.05324141 0.068068996
0.08695731 0.025612244 -0.07179296 -0.06510493 0.022116214 -0.06858865 -0.013349669 -0.081553966
-0.037635617 0.012605998 -0.021525614 0.01541327 -0.044711936 -0.010900275 -0.09676387 -0.045630984
-0.03209571 -0.060223863 -0.046207797 0.04871312 0.079743564 0.09224221 -0.0059530153 0.03317108
-6.33353e-05 -0.05937117 0.021391299 0.004416288 -0.023350026 -0.06376209 0.077829234 -0.015040233
0.063126765 0.042931933 0.049468935 0.04721509 -0.031125644 0.05137946 -0.046560902 0.07800444
-0.02048644 -0.0057882066 -0.050199047 0.016341412 0.09037063 0.024718715 0.01764881 0.027127156
0.029929882 0.04683479 0.038350493 -0.0673153 -0.01694018 0.038171753 0.06103634 0.08184396
0.06552101 0.003363554 0.047463298 0.0076867887 0.051967055 -0.071391374 0.060916696 0.04564236
-0.07031311 -0.07238497 -0.07661565 -0.0011028744 0.011731368 -0.02360872 -4.7500696e-05 0.034330737
-0.036516067 -0.01880669 -0.051101446 0.10017995 0.059414636 0.030128283 -0.01150278 -0.014848551
-0.037489735 -0.015539716 0.03118044 -0.07851043 0.0047331653 0.00069626054 0.08559798 0.032363072
0.08616875 0.031448975 0.027823318 -0.049765076 -0.009790398 0.07955226 -0.052987922 -0.004528406
00000000: e0ef be3c 3468 92bc e695 593d 0ec9 f2ba
00000010: aea4 f33c 19c9 153d fb5f 31bd 461a ed3c
00000020: d08e eebb f91f bcbc 7e5d e13c 9580 94bd
00000030: 2766 de3c 0588 473c 9284 c33d d915 bf3b
00000040: 3402 313d 5065 1e3d 2450 263d 7e52 0abd
00000050: cc5a 93bc 9c4c ef3c 96e6 0fbb 150a 3d3d
00000060: 6ee0 743c 8fda 4bbc 576e 453d 4a43 90bd
00000070: 54f9 de3b 3c9c a13a 31c3 aaba d7b6 66bd
00000080: 6f87 da3c 1257 863c e3b8 f1ba abee ebbb
00000090: 757a 03bd 0ab5 153d 1e2e 873d 1db4 e9bc
000000a0: b6e8 25bc decd 543d 40c6 55bd 9dc0 a93c
000000b0: 49d0 543d e324 1d3d 97e7 74bd 50a3 b7bc
000000c0: 0812 11bd f28c c4bc 9006 723d 6a5a 853a
000000d0: a562 76bc 5dfb 03bd 2e7c 1b3d 023e aa3c
000000e0: 9688 6ebd f4f9 14bb 2e4e 1b3b 25fb 17bd
000000f0: 4c60 983c 3995 803c 1983 4c3d 2cc6 a6bb
00000100: d802 1880 a028 843d e46d 35bd 5655 cf3a
00000110: 0ad8 9fbc 48a6 a7bd a928 89bd 74b0 213a
00000120: 393a 9ebd 25e3 eb3c 126f 893d 081a 4f3d
00000130: e1a7 2bbd 71ed ac3c 29c2 843d 4ae2 90bc
00000140: 61b0 8d3d 2e29 aabd 9ffb 913d ea58 36bd
00000150: 2826 0400 ac67 4e3d 5e2c 1abe a857 6d3c
00000160: fd35 a6bd 0e81 b53b ae8a 653d 1743 99bc
00000170: 3bd7 893d a8bf f2bc ff70 2c3b 76f7 79bc
00000180: 98cd 4480 ef0c b6b9 1037 dc3c 237b a3bc
00000190: f00c 793d 61e4 de3c 769a 373d e777 20bc
000001a0: 40f7 9c3d 278c 823c 2a60 883d cf64 ac3d
000001b0: fa1b a3bd 74dc 6f3c 87ba ae3d 729b d7bc
000001c0: a81f 103d ae69 8e3c 0bb5 853d c6a6 053d
000001d0: e9bd cb3c 83b2 c3bd 140f 873c b5bc bc3d
000001e0: 33a2 aa3d 25c4 1f3d 6a52 b83d e673 8abd
000001f0: 80df 1abd b5a7 8fbd 1673 81bd 82b1 f23c
00000200: f1f1 38bd b1f7 9a3c 397d e3b8 5cf5 343d
00000210: 9fe0 b9bd c51a ffbc 3c4c a63d 0923 df3c
00000220: 3aee 343c b9e3 f93c 4431 90bc c4f1 653d
00000230: 5a56 9abd b1d0 6c3d e37b 38bd 1fb8 40bc
00000240: 4f74 453c c3ce 72bd 67ee 353d 00da df3b
00000250: f29b 763d 8f0e 11bd e2da bf3d 6f81 fbbd
00000260: d685 8b3d 9096 6ebc 689e bf3d 5071 3fbc
00000270: 56cb b33c d5b9 1e3c aa13 5abd c267 8b3d
00000280: ad16 b23d c5d0 d13c 3008 93bd bc55 85bd
00000290: 102d b53c 3578 8cbd 92b8 5abc c405 a7bd
000002a0: ce27 1abd 6389 4e3c 7c56 b0bc f187 7c3c
000002b0: dd23 37bd 1197 32bc 232c c6bd 8ee7 3abd
000002c0: cb76 03bd 4cad 76bd 6344 3dbd 6987 473d
000002d0: 9850 a33d 7ce9 bc3d 8311 c3bb 66de 073d
000002e0: e1d2 84b8 2f2f 73bd ce3c af3c 82b6 903b
000002f0: 8e48 bfbc b395 82bd ef64 9f3d 4f6b 76bc
00000300: 9b48 813d 65d9 2f3d f09f 4a3d 9c64 413d
00000310: 35fb febc 4573 523d a5b6 3ebd cbc0 9f3d
00000320: 2ed3 a7bc ffaa bdbb 849d 4dbd 6dde 853c
00000330: 3d14 b93d e77e ca3c 3d94 903c c539 de3c
00000340: 832f f53c d6d5 3f3d 6815 1d3d 9bdc 89bd
00000350: 22c6 8abc fc59 1c3d 3e01 7a3d ce9d a73d
00000360: e12f 863d 126f 5c3b e068 423d 75e1 fb3b
00000370: 68db 543d a435 92bd c983 793d 7cf3 3a3d
00000380: 5200 90bd 923e 94bd aae8 9cbd 538e 90ba
00000390: ec34 403c 1367 c1bc 7c3b 47b8 639e 0c3d
000003a0: df91 15bd 7d10 9abc c04f 51bd 252b cd3d
000003b0: c35c 733d 97cf f63c 2876 3cbc 5647 73bc
000003c0: d68e 19bd 4b9a 7ebc 1f6e ff3c 14ca a0bd
000003d0: ab18 9b3b 4185 363a fe4d af3d 248f 043d
000003e0: 3e79 b03d a4d0 003d baed e33c 77d6 4bbd
000003f0: e867 20bc 4cec a23d dd09 59bd 0663 94bb
